hw1/model.npy (npy, 568 bytes, 1 tensors)

array f8 [55]
000000 48 7d 7d eb dd bb e0 bf 2b d7 a3 13 6e c5 be 3f
       -0.5229329680841284 0.12020004252903209
000010 4d 5a d1 75 93 9f 9c bf 07 5a be af 8e 1f b2 3f
       -0.0279524841938275 0.07079402723898208
000020 d1 5a 87 82 9a a9 a7 bf 3e d4 8f 8b c7 42 92 bf
       -0.04621584742897301 -0.017832868474176637
000030 23 f8 3b 43 66 ab ac 3f 0c ee a0 92 49 4a a8 3f
       0.05599517412882473 0.04744176783466622
000040 07 74 82 2f 21 a0 85 bf 93 b9 5a 4f 8b be a9 bf
       -0.010559329283120545 -0.05028186172181672
000050 ad 9d 89 d0 9a d4 b2 3f c3 5f 10 b5 9a 23 b4 3f
       0.07355659095048024 0.07866827888972154
000060 ed ba 20 6e 2d f8 80 bf dd 0b 77 bd c1 7f a2 bf
       -0.008285860942206702 -0.03613095701032141
000070 db fd f6 07 1f 2b 92 3f 35 dd 71 b6 36 50 83 bf
       0.017742619382031904 -0.009430339281819225
000080 9b c0 c3 2a 0f 1f a1 bf 8f 60 3f 11 b4 1b ab 3f
       -0.03344008824376595 0.05294573507825461
000090 3e ec d8 32 8e 4c b6 3f 89 cc 29 b4 f3 7f b6 bf
       0.08710564366713044 -0.08788989208714972
0000a0 05 a0 4b d5 f8 33 9c bf d9 51 61 d2 7d cb a8 bf
       -0.027542007463949875 -0.04842751687161568
0000b0 b6 f1 22 8a e3 ae b2 3f e7 c7 6b 9e 6e bc 9d bf
       0.07298109171364939 -0.02903912393498578
0000c0 b8 5b 5b 74 c6 6f ae bf d6 a8 44 d6 b4 94 b0 bf
       -0.05944652719852378 -0.06476907950551278
0000d0 a4 2f 5b b0 8b ba 97 bf c1 2a 95 e6 6d a1 ba 3f
       -0.023172552718093833 0.10402571563205766
0000e0 e9 94 0e d2 eb 42 4c 3f ec a8 13 36 d6 9b 9b 3f
       0.0008624698131042527 0.02696165757235118
0000f0 7a e9 8e 87 1b 82 8c bf 0a ca 77 2d 69 98 90 3f
       -0.013920035433206069 0.01620640125288201
000100 6d ac 36 49 06 a7 8d bf 90 ba a0 78 03 d9 a9 bf
       -0.014478730305958554 -0.05048380706317801
000110 c3 1f 38 b7 09 a7 8b bf 24 84 fa 29 4d 54 88 bf
       -0.013502193359286601 -0.011879542201599654
000120 09 cf f4 53 45 c9 b2 3f e0 d1 82 37 a1 83 28 bf
       0.07338364886964767 -0.0001870283410930892
000130 85 1b 11 ec 06 9a 98 bf 28 0d b6 27 f7 91 8e 3f
       -0.024025066526771183 0.014926844500911488
000140 77 37 aa ad fe bc 84 bf bd fb 30 ae 45 66 a7 bf
       -0.010126104044754431 -0.0457021498809733
000150 02 e9 8c 03 4e de a9 3f b0 a2 e6 19 30 41 a0 bf
       0.05052417558040824 -0.03174734417126979
000160 7e 27 4a 8a a5 58 ac bf 96 54 fb b2 70 1e c3 3f
       -0.05536382020097984 0.1493664621290562
000170 08 6e fe 1c b6 e9 91 bf ca 72 20 e8 49 16 75 3f
       -0.017493100661893052 0.005148209284041536
000180 c0 48 f8 95 4f 2f cb 3f 83 76 bc c0 53 44 d2 bf
       0.2123813135409076 -0.2854203588666239
000190 e0 ac ee 6d 6d 82 95 3f 29 03 bd 74 8f 7f e1 3f
       0.021005353770004898 0.5468213348432062
0001a0 79 19 48 f2 34 da e3 bf df 78 8d 29 d5 1e a6 3f
       -0.6203865749419456 0.04320398456796836
0001b0 86 f8 30 6a 4b 19 ef 3f
       0.9718377183960605
