hw2/model.npy (npy, 1280 bytes, 1 tensors)

array f8 [144, 1]
-0.21370550995148457 -0.29322310231157 -0.15697119149121969 -0.20294039821430077 -0.4818989726555781 0.1784698477142121 -0.9408616374623918 -0.3021431156944296
-0.14095581893589937 0.014823802740339542 0.4512448627730006 0.1579269490078296 0.11362453954514513 0.8398199955238028 -0.6230965146016114 -0.44773193429618313
0.9558781490782057 -0.6168714441259331 -0.13116380790055773 0.5816937759542823 -1.3015081106457385 -0.5118798766364071 -0.2685001093843005 0.4271391825038249
0.048028141962511324 -0.6946685036414211 -0.660101593607087 0.11776421767588208 -0.6230965146040377 0.1136245339253502 -0.6946685036337493 -0.4477319272762116
-0.6601015916935319 0.5816937690004318 -0.6168714441313623 -0.2685001093920969 0.11776412040349535 0.8398200064354814 0.4271389948270973 0.9558781529121064
-1.3015081106414756 -0.5118798797751397 -0.13116382887164446 0.04802851349695405 0.7628200050547406 -0.9382340275139426 -1.1228430862307597 -0.5718879450194772
-1.0240788153838367 1.4217524834845472 -1.2119582667054922 0.7235235097489985 0.5206859761829199 -0.9452374486532027 -0.37571563727021423 -0.28176916404261
0.5870267457129882 -0.8418784718198206 -0.381679361250412 -0.6777165128598565 -0.19187024036207365 -0.07460437448542104 -0.02729378417478813 0.446501591658349
-1.408615357630353 0.26557269792313565 -0.6063837880816049 -0.8002540709633423 0.007280589956242179 -0.07189062585448036 1.216022145991626 -0.20730610964245888
-0.3857658711577931 -0.08637271040459689 -0.3284468993983939 0.006818817644237822 -0.5544700270626649 -0.744698886737184 0.059983609373934994 9.097197733495328
1.835189589072596 2.2915457145999456 0.6306299794230481 -0.23804433270103229 -0.4174250290302991 0.7448990127640712 -0.9532748427163514 -0.42544355675937773
0.15531268055783695 -0.17771550086696045 -0.37071490697669435 0.08728131352485752 -0.5412283651712709 0.49729990939957275 0.5478204440663828 0.0774613467829556
0.5742296965660018 0.41890810751141155 -0.20702056437478858 -1.2193806217787804 0.015569259648619611 0.38773511414194917 -0.6496619476148857 -0.6146316336736917
0.17585577361227492 -0.18699453510240946 0.31161879901257156 -0.6438655448272464 -0.16387459524317968 0.11545170280462456 -0.3856551698208701 -0.44544125692808484
0.40518633287448835 -0.02303989649504251 0.7090552437965603 0.3925909069198244 -0.9473421552597123 -0.12538493548865998 -0.2174138602280494 -0.3843849236502719
0.655008231763693 0.16422724131441535 -0.1800687704735964 0.009856196806101418 -0.29322274567831313 0.1579271922296348 9.097197733678374 1.8351895853974356
-1.7279103117227295 0.020187435911432863 1.0766231394009544 1.3753691118849378 -1.8854135744572784 -0.12722934980057934 0.02758411675535683 0.29432216334116784
-0.6383674739653515 -0.17327806335270265 -0.04064559830452387 -0.529154182762375 1.650661333710727 0.08986221681419505 0.022150472281265907 -0.03326674948846004
00000000: 7eba 1bc0 b35a cbbf de07 b7d4 2ac4 d2bf
00000010: 7e39 efca a117 c4bf c80e af72 f3f9 c9bf
00000020: 7907 e2c9 6ed7 debf 1698 a097 19d8 c63f
00000030: 8dc8 5edd 891b eebf a79f 2714 5056 d3bf
00000040: dc5a 411c d70a c2bf 73e3 c61f f15b 8e3f
00000050: 6046 0622 32e1 dc3f e6a5 9244 f336 c43f
00000060: bd94 5e71 7f16 bd3f b4a6 e92e cedf ea3f
00000070: 70e5 0e1a 68f0 e3bf c752 cbd7 a3a7 dcbf
00000080: 9d0f a8c5 8d96 ee3f f86d cb2e 69bd e3bf
00000090: 3905 adc4 f9c9 c0bf 2555 0044 3c9d e23f
000000a0: 323c 2b2b fad2 f4bf c548 34e8 5161 e0bf
000000b0: a5ca 3115 1b2f d1bf 306c ec94 3f56 db3f
000000c0: e983 0806 2597 a83f e86f 1671 b93a e6bf
000000d0: b78e 9260 8d1f e5bf 8893 8eb7 cb25 be3f
000000e0: ce3a 0f1a 68f0 e3bf 178d 3b59 7f16 bd3f
000000f0: fb61 1571 b93a e6bf 32b0 41d0 a3a7 dcbf
00000100: 7b8f 8b5f 8d1f e5bf 489a 4440 3c9d e23f
00000110: fe2c cc2e 69bd e3bf 44ef 3315 1b2f d1bf
00000120: be74 c615 ca25 be3f 4357 c534 cedf ea3f
00000130: 8e3c 68cb 3e56 db3f 01fd b6c7 8d96 ee3f
00000140: 34f1 2a2b fad2 f4bf 1bab e3e9 5161 e0bf
00000150: 4cff b5f1 f9c9 c0bf 2365 7d7d 3197 a83f
00000160: b33a ce7f 0569 e83f ff55 055e 0306 eebf
00000170: c369 de4f 2af7 f1bf c8ba 9af2 e74c e2bf
00000180: 9a99 c977 a062 f0bf a42a 3988 7fbf f63f
00000190: f7de f959 2e64 f3bf 6e4a 88c6 1a27 e73f
000001a0: 9220 e6a2 75a9 e03f 8470 1d9b 623f eebf
000001b0: b5f7 aa99 b90b d8bf aa64 2588 8108 d2bf
000001c0: f1dd 5650 ecc8 e23f d585 f51e abf0 eabf
000001d0: 723c 8845 6f6d d8bf e326 568a daaf e5bf
000001e0: 5323 b73b 348f c8bf f2ac 8db4 4519 b3bf
000001f0: a4c0 a8d9 e6f2 9bbf 2836 7269 7b93 dc3f
00000200: c0a6 da41 b089 f6bf 2c95 12a1 24ff d03f
00000210: a352 54f9 7e67 e3bf cee8 e86c ae9b e9bf
00000220: a751 1f7c 40d2 7d3f 5818 ef8e 6c67 b2bf
00000230: aeee 43a3 d374 f33f e871 96b0 0189 cabf
00000240: 6f48 2256 63b0 d8bf 2562 749e 851c b6bf
00000250: 86e0 d824 4605 d5bf d260 786c 0cee 7b3f
00000260: 8d15 1bed 37be e1bf 0aec 7cc2 92d4 e7bf
00000270: e13a 1df1 2bb6 ae3f 2c37 bde6 c331 2240
00000280: 756c 30c2 ef5c fd3f 3af7 6beb 1555 0240
00000290: fef8 2fec 1e2e e43f 5b7b f997 3c78 cebf
000002a0: 16e3 0d78 17b7 dabf b39e 5474 36d6 e73f
000002b0: e91e 323e 3a81 eebf 20d4 a49c 773a dbbf
000002c0: 5b33 d331 49e1 c33f 21a1 1bac 61bf c6bf
000002d0: 83b1 6604 cbb9 d7bf bc24 2473 1158 b63f
000002e0: 3d80 0226 be51 e1bf 0532 cbff c2d3 df3f
000002f0: ca0c 6bbd be87 e13f 7a0c 23bf 81d4 b33f
00000300: 4d93 e4f4 1660 e23f e39b 72f3 63cf da3f
00000310: 3d6a cb5c a67f cabf f7a7 3e41 9582 f3bf
00000320: e42a 1ca8 c6e2 8f3f 2c08 b0f0 a6d0 d83f
00000330: 6cc5 4eda 07ca e4bf dae5 b6f5 0fab e3bf
00000340: bd1e 3d26 7182 c63f 53d5 65da 6fef c7bf
00000350: 8bfa a4f9 8ff1 d33f 61bc 41ea 8b9a e4bf
00000360: 177b 9bbd d7f9 c4bf 4739 d027 3e8e bd3f
00000370: 607e 7a05 93ae d8bf 81e5 b20b 1c82 dcbf
00000380: aeda 1ea8 92ee d93f 1038 cc47 c597 97bf
00000390: aa3b 659f 94b0 e63f 395e 7b9c 3520 d93f
000003a0: c6cd de7e a050 eebf d6dc aa12 9d0c c0bf
000003b0: 0334 b0a5 37d4 cbbf e4d0 0939 c399 d8bf
000003c0: af25 c1d2 d3f5 e43f 2c63 47f3 6505 c53f
000003d0: 0186 1b54 7e0c c7bf 4fa8 8f57 7c2f 843f
000003e0: 736d c855 29c4 d2bf e03f e34e f536 c43f
000003f0: b2c9 bee6 c331 2240 5ade 33c1 ef5c fd3f
00000400: 1a53 7448 85a5 fbbf b469 1ee4 03ac 943f
00000410: d080 5d2f d939 f13f 0897 b70a 8301 f63f
00000420: d2a7 9b6c a72a febf fd0e 3e24 0d49 c0bf
00000430: 52c8 69bd 023f 9c3f 4773 82a0 2cd6 d23f
00000440: b45c f09f 816d e4bf c766 9bbf f92d c6bf
00000450: 1279 e3f6 7fcf a4bf 3731 b0c0 d4ee e0bf
00000460: f4f2 d0db 1b69 fa3f 79ef 5cd2 3501 b73f
00000470: 69ed 2708 9dae 963f 09bf 31e2 5608 a1bf
